app/src/main/assets/wavelet_cwt.tflite (tflite, 555532 bytes, 8 tensors)

sequential_2/conv2d_4/BiasAdd/ReadVariableOp f4 [16]
0.008818745 -0.010181286 0.0025101108 0.05182386 -0.07456716 0.043799613 -0.0077835848 0.078702
-0.011973112 -0.9417945 -0.042303093 0.0018229818 -0.02572366 0.034584798 0.05563431 0.04141198
00000000: 7f7c 103c 69cf 26bc ac80 243b 4145 543d
00000010: abb6 98bd 3967 333d 710d ffbb 842e a13d
00000020: df2a 44bc 7219 71bf 0246 2dbd 1ef1 ee3a
00000030: 6dba d2bc caa8 0d3d cde0 633d 9c9f 293d

sequential_2/conv2d_5/BiasAdd/ReadVariableOp f4 [16]
-0.05797569 0.1347603 0.0119770765 -0.108392656 -0.07698656 -0.05151195 0.13506551 0.07287679
-0.08178865 0.0115341535 0.0110147 -0.02205276 0.020907179 0.10541559 0.091561794 0.08244014
00000000: eb77 6dbd 9bfe 093e 803b 443c f8fc ddbd
00000010: 21ab 9dbd 32fe 52bd 9d4e 0a3e 6d40 953d
00000020: cf80 a7bd bff9 3c3c 0077 343c fda7 b4bc
00000030: 8845 ab3c 21e4 d73d c084 bb3d 60d6 a83d

sequential_2/conv2d_4/Conv2D f4 [16, 3, 3, 1]
-0.2608705 0.39346725 -0.48633257 0.1918442 0.2558891 -0.18637311 -0.13934985 0.31438994
-0.112602964 0.09944939 -0.01324072 0.14634298 0.26960102 0.24003072 0.17101465 0.23838307
0.31011644 0.37202704 -0.256993 -0.4728697 -0.38515365 0.44401595 0.20959039 0.18579687
0.2613339 -0.28383452 -0.34215403 -0.45824015 -0.06752772 0.09242671 -0.5074219 -0.2325131
0.2524679 0.09434587 0.020972895 0.66895354 0.36961368 0.37058872 0.05540726 0.12783186
0.056925274 0.1351452 0.4243917 0.47798198 0.32081217 -0.14753501 0.15464717 -0.00014842398
-0.35288346 -0.22834912 -0.29554605 -0.34049636 -0.025744328 -0.17201833 0.42231077 0.44927192
0.49977803 -0.062888205 -0.070369236 0.06342803 0.28158897 0.185356 -0.029845174 -0.05586593
-0.2762583 -0.11623318 0.3513817 0.23460674 0.044670504 0.36094427 0.1403025 0.009735791
-0.0669268 -0.16838208 0.029257286 -0.038062133 0.09686375 0.20624256 0.1996383 -0.28188315
0.28094184 -0.38920224 -0.31702247 -0.45104724 -0.03893904 -0.38000113 -0.31121036 -0.063984774
-0.33507213 -0.093434244 0.0026975176 -0.37092867 -0.083314195 -0.2184484 -0.45290607 0.03265772
-0.26257005 -0.33294308 0.10506619 -0.3171698 -0.3940428 -0.26201928 0.29356962 -0.13655059
0.3379753 0.3023217 -0.18238863 0.3738536 -0.2718321 -0.0069172536 0.19905576 -0.23005153
-0.03082215 0.17700881 -0.47858486 -0.30458575 -0.0119714625 0.24498798 0.06864556 0.325892
0.11495205 -0.0024787409 0.28439954 0.21153243 -0.13067406 -0.23910727 0.28611162 -0.002674032
0.07069274 0.097248144 -0.3801119 -0.3237862 0.08618296 -0.3872239 -0.30290872 0.24989021
-0.009551798 -0.008253387 0.106743686 0.21164285 -0.17664087 0.01948916 -0.1375073 -0.33400366
00000000: d190 85be 8a74 c93e 9500 f9be ce72 443e
00000010: e503 833e 98d8 3ebe bab1 0ebe b8f7 a03e
00000020: 629c e6bd 1fac cb3d 9bef 58bc efda 153e
00000030: 2509 8a3e 9dca 753e 771e 2f3e b11a 743e
00000040: 95c7 9e3e 547a be3e 9694 83be fa1b f2be
00000050: dc32 c5be 0f56 e33e dd9e 563e 8941 3e3e
00000060: 8fcd 853e c252 91be d02e afbe 749e eabe
00000070: f94b 8abd 374a bd3d 67e6 01bf ea17 6ebe
00000080: 7943 813e 6838 c13d 59cf ab3c 8a40 2b3f
00000090: 013e bd3e cebd bd3e b9f2 623d 5be6 023e
000000a0: 7a2a 693d 8163 0a3e de49 d93e 0eba f43e
000000b0: 7e41 a43e 6b13 17be d45b 1e3e 42a2 1bb9
000000c0: 24ad b4be 5ad4 69be d051 97be 8a55 aebe
000000d0: c5e5 d2bc 9325 30be 1e39 d83e f806 e63e
000000e0: e8e2 ff3e 88cb 80bd bf1d 90bd 8ee6 813d
000000f0: 6e2c 903e f7cd 3d3e de7d f4bc acd3 64bd
00000100: ba71 8dbe a90b eebd 4de8 b33e c03c 703e
00000110: 6bf8 363d b0cd b83e 75ab 0f3e de82 1f3c
00000120: eb10 89bd 5a6c 2cbe faac ef3c 0ae7 1bbd
00000130: 8060 c63d 4031 533e fc6d 4c3e fd52 90be
00000140: 9cd7 8f3e 8445 c7be c550 a2be aaef e6be
00000150: 8b7e 1fbd 828f c2be f756 9fbe 730a 83bd
00000160: 938e abbe 745a bfbd d6c8 303b 5dea bdbe
00000170: a2a0 aabd f0b0 5fbe 4ee3 e7be 1ac4 053d
00000180: 956f 86be 8477 aabe f12c d73d 1464 a2be
00000190: fabf c9be 6427 86be c24e 963e ebd3 0bbe
000001a0: 190b ad3e e9c9 9a3e 16c4 3abe bd69 bf3e
000001b0: 942d 8bbe 21aa e2bb 46d5 4b3e a192 6bbe
000001c0: bc7e fcbc cc41 353e 1309 f5be aaf2 9bbe
000001d0: f423 44bc 21de 7a3e 0b96 8c3d 51db a63e
000001e0: fb6b eb3d 5f72 22bb d19c 913e f59b 583e
000001f0: 6ccf 05be 89d8 74be 397d 923e d03e 2fbb
00000200: 5bc7 903d 092a c73d 079e c2be 4ec7 a5be
00000210: b180 b03d 3642 c6be da16 9bbe 38e3 7f3e
00000220: 257f 1cbc 3739 07bc 6f9c da3d e7b8 583e
00000230: 58e1 34be bba7 9f3c b7ce 0cbe 8702 abbe

sequential_2/conv2d_5/Conv2D f4 [16, 3, 3, 16]
0.046592005 0.10075495 -0.20339715 -0.25437093 0.27922395 0.16866659 0.2353328 0.16634451
0.20879792 -0.016601013 0.12883864 0.15236935 -0.021636466 0.38327283 0.010465871 -0.25791842
-0.04088214 0.06469067 -0.03944241 -0.21433417 -0.09438331 0.19569558 0.05325898 0.035057645
0.21756329 0.03237676 0.20401299 0.23335429 0.035555575 0.17807607 0.24159338 -0.0417039
0.025188323 -0.27787656 -0.08735568 -0.26977074 -0.25364655 0.19850501 -0.28046876 0.096533746
0.0018055914 -0.154497 -0.09675161 0.37816787 -0.06693617 0.0060226046 0.1904193 0.0013289943
0.059341956 0.20378184 0.10933061 -0.059149973 -0.013789844 0.24883518 0.23047587 0.017830627
-0.12528184 0.10888494 0.2005982 0.09746011 0.1319707 0.16950478 -0.11212388 -0.2187358
-0.13960958 0.047691643 -0.014501563 0.008126709 0.07899919 -0.017981851 -0.012180112 -0.09260897
0.100265816 -0.27124414 0.117526576 0.30423877 0.18950702 -0.10458436 -0.016876383 -0.052492328
0.28570983 -0.3329923 0.16043131 -0.08371687 -0.29167935 -0.07516599 -0.23313722 -0.02960987
0.10055729 -0.6375279 -0.19404478 0.15512584 0.049687546 -0.05450478 0.049417194 0.15677084
0.10332732 -0.07705503 -0.07697988 -0.20882128 -0.12607644 -0.0916502 0.029756831 -0.15769957
-0.28505555 -0.012134378 -0.061002854 -0.12301974 -0.09139733 -0.006479382 -0.13506302 -0.21138479
0.06230236 0.0708044 -0.072777875 -0.035961792 -0.108004786 -0.029664032 0.021033645 -0.32203802
0.14607805 -0.4454171 0.103927225 0.4619437 -0.0823777 0.085370585 -0.11976869 -0.22722033
0.14840926 -0.19944885 0.11781886 -0.11893812 -0.1750105 -0.029335894 -0.13000858 -0.09302736
-0.04514128 -0.5491573 -0.2566657 0.23502634 -0.15375534 -0.081991725 0.07715403 -0.0553136
0.04602028 -0.24365169 0.30382493 0.15490092 -0.4907902 -0.18054731 -0.3730396 0.007409752
-0.14742607 -0.51307684 -0.058151916 0.25062716 -0.35204312 -0.14660755 -0.1964807 -0.0011750535
0.23565897 -0.0026671686 0.39187577 0.11103397 -0.010891203 -0.015299323 0.021289028 0.018522555
0.22513387 -0.23117574 -0.25809708 0.3023451 0.011454677 -0.020548915 -0.098280214 -0.013527073
0.19710724 0.3187529 0.4313294 0.12987007 0.19635314 -0.15534681 0.29783225 0.15714855
0.026224537 -0.22098957 0.09589568 0.49005497 0.009842773 0.2869175 0.078458846 -0.24036448
-0.01505191 -0.24646609 -0.08338362 -0.21377297 -0.20372884 -0.09033168 -0.10498406 0.25789097
-0.14186232 -0.1075762 -0.501885 -0.004629004 -0.42441365 0.04243732 0.2097692 -0.0024406791
0.27171734 -0.15933211 -0.07044772 -0.14516151 -0.31107137 0.24904847 0.07038975 -0.067119315
0.027288908 -0.5955229 0.007076557 -0.40321448 0.019383986 -0.02962143 -0.004638002 -0.17738912
-0.38124657 0.13930358 0.044152003 0.16721281 -0.02958999 -0.031838465 0.120687224 -0.12582603
-0.016537882 -0.4388523 0.088874765 -0.095268846 0.26291597 0.1751295 -0.052481096 -0.32741156
0.003736035 -0.21514237 0.018602991 -0.35822332 -0.3490136 0.029841235 -0.24697211 0.1455669
-0.1005971 -0.48478976 -0.36258334 0.15780368 -0.21595371 0.060400467 0.19435932 0.14749002
00000000: 42d7 3e3d 9c58 ce3d 5847 50be e83c 82be
00000010: 71f6 8e3e efb6 2c3e 15fb 703e 3756 2a3e
00000020: 1fcf 553e d9fe 87bc 47ee 033e b606 1c3e
00000030: f53e b1bc 563c c43e 0b79 2b3c e20d 84be
00000040: 0874 27bd 8b7c 843d 5d8e 21bd 6b7a 5bbe
00000050: 094c c1bd 6c64 483e 1726 5a3d 9b98 0f3d
00000060: e9c8 5e3e 7e9d 043d c8e8 503e 6df4 6e3e
00000070: b9a2 113d 9359 363e 4164 773e b5d1 2abd
00000080: be57 ce3c d645 8ebe 89e7 b2bd 641f 8abe
00000090: f6dd 81be e644 4b3e 9a99 8fbe 7cb3 c53d
000000a0: 98a9 ec3a 7634 1ebe b525 c6bd 389f c13e
000000b0: d515 89bd 4559 c53b 47fd 423e a631 ae3a
000000c0: 8d10 733d 30ac 503e bae8 df3d 3e47 72bd
000000d0: ccee 61bc a6ce 7e3e de01 6c3e 8911 923c
000000e0: e249 00be 11ff de3d 9d69 4d3e 2b99 c73d
000000f0: 5423 073e a992 2d3e 34a1 e5bd 47fc 5fbe
00000100: d0f5 0ebe 5058 433d f797 6dbc e325 053c
00000110: 54ca a13d ad4e 93bc 188f 47bc c6a9 bdbd
00000120: 2a58 cd3d 83e0 8abe c6b1 f03d 2fc5 9b3e
00000130: 210e 423e 5330 d6bd 5740 8abc 3202 57bd
00000140: 8f48 923e f77d aabe 1b48 243e c073 abbd
00000150: ff56 95be a0f0 99bd 86bb 6ebe 6690 f2bc
00000160: fbf0 cd3d 0735 23bf adb3 46be 4fd9 1e3e
00000170: 2b85 4b3d 6740 5fbd af69 4a3d 8988 203e
00000180: 469d d33d 07cf 9dbd a1a7 9dbd 3fd5 55be
00000190: 2f1a 01be 1ab3 bbbd 99c4 f33c ff7b 21be
000001a0: cdf2 91be 45cf 46bc 21de 79bd c6f1 fbbd
000001b0: 862e bbbd ff50 d4bb f64d 0abe 4175 58be
000001c0: c230 7f3d e601 913d 910c 95bd ac4c 13bd
000001d0: 9d31 ddbd fc01 f3bc c04e ac3c 2be2 a4be
000001e0: 7c95 153e b60d e4be ccd7 d43d e283 ec3e
000001f0: a4b5 a8bd c6d6 ae3d 4949 f5bd 72ac 68be
00000200: 99f8 173e 523c 4cbe 044b f13d d495 f3bd
00000210: f435 33be d451 f0bc f820 05be 2185 bebd
00000220: 10e6 38bd 9395 0cbf b069 83be bfaa 703e
00000230: 0a72 1dbe 47eb a7bd ef02 9e3d 8390 62bd
00000240: c37f 3c3d d47f 79be f18e 9b3e 599e 1e3e
00000250: da48 fbbe 65e1 38be 0cff bebe 81cd f23b
00000260: dcf6 16be 0159 03bf b430 6ebd 3452 803e
00000270: ff3e b4be 4a20 16be 3d32 49be 4104 9aba
00000280: 9650 713e aacb 2ebb f1a3 c83e c765 e33d
00000290: 0471 32bc 03aa 7abc 5466 ae3c 9dbc 973c
000002a0: 7e89 663e 55b9 6cbe 4d25 84be facc 9a3e
000002b0: 66ac 3b3c 3356 a8bc 2347 c9bd a8a0 5dbc
000002c0: 7bd6 493e 9533 a33e 35d7 dc3e a9fc 043e
000002d0: cc10 493e 3c13 1fbe 787d 983e 8deb 203e
000002e0: d7d4 d63c 174b 62be f464 c43d 7ce8 fa3e
000002f0: 9543 213c dae6 923e 08af a03d 1b22 76be
00000300: 499c 76bc 9b61 7cbe 08c5 aabd 4de7 5abe
00000310: 4b9e 50be d1ff b8bd e201 d7bd 490a 843e
00000320: 5b44 11be e950 dcbd 897b 00bf e6ae 97bb
00000330: bf4c d9be c1d2 2d3d bdcd 563e cdf3 1fbb
00000340: 891e 8b3e f527 23be e546 90bd 38a5 14be
00000350: bf44 9fbe 9006 7f3e 8028 903d da75 89bd
00000360: fd8c df3c 3074 18bf 76e2 e73b 2172 cebe
00000370: 2acb 9e3c a4a8 f2bc 61fa 97bb 7ea5 35be
00000380: c032 c3be 99a5 0e3e bbd8 343d d639 2b3e
00000390: b566 f2bc 0d69 02bd dd2a f73d 8ad8 00be
000003a0: 747a 87bc 40b1 e0be f903 b63d 501c c3bd
000003b0: ec9c 863e 2655 333e 6bf6 56bd 7da2 a7be
000003c0: 44d8 743b 484e 5cbe 4d65 983c 0c69 b7be
000003d0: e9b1 b2be 9b75 f43c 42e6 7cbe 7d0f 153e
000003e0: da05 cebd 5d36 f8be 86a4 b9be 4a97 213e
000003f0: f822 5dbe 7b66 773d 2106 473e a007 173e

sequential_2/dense_5/BiasAdd/ReadVariableOp f4 [5]
0.1634404 -0.45344356 0.015246312 0.41732064 -0.27851626
00000000: ec5c 273e c129 e8be abcb 793c 0dab d53e
00000010: af99 8ebe

sequential_2/dense_4/BiasAdd/ReadVariableOp f4 [16]
-0.006005395 -0.0060751257 0.12216036 -0.006005431 -0.011615924 -0.006005469 -0.006005432 -0.006004665
-0.008285401 -0.0060054166 -0.0060053966 0.030658644 -0.007619287 -0.005105689 0.113761604 0.002016308
00000000: e8c8 c4bb d911 c7bb 362f fa3d 35c9 c4bb
00000010: b750 3ebc 86c9 c4bb 37c9 c4bb c8c2 c4bb
00000020: 7ebf 07bc 16c9 c4bb ebc8 c4bb d627 fb3c
00000030: 36ab f9bb a04d a7bb d8fb e83d 0924 043b

sequential_2/dense_4/MatMul f4 [16, 8464]
-0.016587736 0.004649677 -0.00826648 -0.012243639 -0.0009863685 0.018924927 -0.0029995102 -0.0050833384
0.016956748 0.0068839635 -0.021484463 -0.025606936 -0.015964916 0.009922805 -0.0066346377 0.014340653
-0.012770579 0.008740475 -0.017722644 -0.021469146 -0.02823471 -0.02487035 0.00018567049 0.02039535
-0.015295511 0.0021691325 0.011437635 0.013647232 -0.02973593 -0.021863297 -0.026982088 0.005142699
0.010994303 0.017962852 -0.0202993 0.002842378 -0.021179734 0.008370554 0.013720209 0.0035722314
0.0051550353 0.01125035 -0.016930556 -0.029336082 -0.0072612874 0.0011749032 -0.01875786 -0.016141668
-0.011795549 -0.00526517 -0.026233306 -0.016015548 -0.017767534 0.00816871 0.0069203638 -0.031184254
0.017836183 -0.0042279838 -0.016400205 -0.013419193 0.014602124 -0.021902852 -0.030679284 0.0108534815
0.011764154 -0.013717446 -0.01339198 -0.012746814 0.01648327 0.0036446082 0.015632097 -0.004013348
0.008507198 -0.021415494 0.009932331 -0.0023774486 0.012222856 -0.018192846 0.0034289847 -0.015904868
-0.015719023 -0.003865415 -0.007024036 -0.023261007 0.009262738 -0.010200141 0.0048670573 0.009024427
0.011907195 0.000389827 -0.015820786 0.0155838635 -0.0034668688 0.007633897 -0.021104105 -0.0005784384
-0.030439006 -0.030712023 -0.011127842 -0.009558574 0.010281438 0.0010892509 0.020095568 -0.0040153344
0.016019402 -0.019035278 -0.0024649536 -0.0031905784 0.003783652 -0.0021607333 0.017845193 -0.0011364637
0.0056136423 0.00062056666 0.009089032 0.0051323273 0.008504562 0.023329811 -0.022448152 -0.009534101
0.005387208 -0.023602039 0.019380681 0.019729618 0.01787043 -0.0076727686 -0.015109198 0.020778688
0.019333964 0.014771497 -0.028043171 0.0054339273 -0.014396505 0.014480641 0.017040273 -0.014705389
0.004444712 -0.027634302 -0.027686024 -0.011535477 0.0041411542 0.010479384 0.025377015 -0.01713095
-0.008700448 0.019298343 0.0073855063 0.009091981 0.004949329 0.010653889 -0.013454747 0.012455769
-0.018094404 0.020265365 -0.005546769 0.0007497459 -0.01793694 -0.0056681875 -0.025882315 0.011815673
-0.028339969 0.020480337 -0.021277292 -0.019592762 -0.017143719 0.011358188 -0.0008268202 -0.0072561773
-0.009983448 -0.009422331 0.017487464 -0.019112235 0.017270554 0.0084613925 -0.0043139425 -0.013966811
0.011253679 0.01446612 0.0026452348 -0.011149772 -0.0063687707 0.017634215 0.00065512565 0.018272417
0.0014551107 0.0037831971 0.0012112723 -0.03250751 -0.030600151 -0.03183923 0.0078161415 -0.0061155697
-0.007916182 0.01685547 0.018754855 -0.008936896 -0.016089045 0.014694611 -0.02354336 -0.023360843
-0.022490723 -0.008896283 -0.029554727 -0.0051028132 -0.026653668 -0.009544317 -0.030412018 0.018975949
-0.020135045 -0.008908183 0.0103613455 0.015564704 -0.019838158 0.016868727 -0.015840951 0.0089614
0.009467415 -0.004057785 0.0018660857 -0.008796765 -0.00026427477 -0.029366326 0.016737988 0.0068380022
0.009183527 0.0051264265 0.014200156 -0.032271583 -0.030500084 0.0024534557 0.01291094 0.026466971
-0.008554671 0.01927584 -0.015133243 -0.0028706766 -0.026610944 -0.015380331 0.023870578 -0.0021295887
-0.0022858449 0.015029382 -0.013411266 -0.012876369 0.0030410518 -0.02626294 0.0140764285 -0.002291443
-0.009562166 -0.01678797 0.00077985495 -0.02324343 0.020495452 0.006504541 -0.011396473 -0.021592584
00000000: 01e3 87bc 515c 983b 2170 07bc 8b99 48bc
00000010: 0949 81ba 7308 9b3c 6e93 44bb 2292 a6bb
00000020: e1e8 8a3c df92 e13b 2f00 b0bc a3c5 d1bc
00000030: dbc8 82bc 4393 223c 6067 d9bb 0ff5 6a3c
00000040: b13b 51bc 3634 0f3c 142f 91bc 10e0 afbc
00000050: 7b4c e7bc e7bc cbbc 8bb0 4239 2614 a73c
00000060: 069a 7abc 0128 0e3b eb64 3b3c a498 5f3c
00000070: c498 f3bc a81a b3bc 8a09 ddbc 1684 a83b
00000080: 7321 343c d526 933c b84a a6bc 3147 3a3b
00000090: 1f81 adbc a624 093c baca 603c 191c 6a3b
000000a0: 92eb a83b 6353 383c f3b1 8abc 3952 f0bc
000000b0: 18f0 edbb 36ff 993a 15aa 99bc 883b 84bc
000000c0: 1e42 41bc 7287 acbb 3be7 d6bc 0a33 83bc
000000d0: 388d 91bc 0ed6 053c 38c4 e23b 1f76 ffbc
000000e0: 301d 923c e68a 8abb b959 86bc 2ddc 5bbc
000000f0: bf3d 6f3c 9c6d b3bc 1f53 fbbc cdd2 313c
00000100: 70be 403c 23bf 60bc 096a 5bbc 03d8 50bc
00000110: ec07 873c 61da 6e3b e20e 803c 6782 83bb
00000120: c661 0b3c 8c6f afbc 37bb 223c f8ce 1bbb
00000130: 6042 483c 2a09 95bc d1b8 603b ed4a 82bc
00000140: 2ec5 80bc e752 7dbb e229 e6bb de8d bebc
00000150: bdc2 173c 7e1e 27bc d67b 9f3b 31db 133c
00000160: 6516 433c b261 cc39 989a 81bc 7653 7f3c
00000170: 6834 63bb c525 fa3b 84e2 acbc 58a2 17ba
00000180: 395b f9bc c897 fbbc 8d51 36bc 919b 1cbc
00000190: 7a73 283c 32c5 8e3a 769f a43c 1193 83bb
000001a0: 1f3b 833c dfef 9bbc 0f8b 21bb 0619 51bb
000001b0: 26f7 773b 179b 0dbb 1530 923c 65f5 94ba
000001c0: a5f2 b73b 86ad 223a 2aea 143c 152d a83b
000001d0: b856 0b3c 291e bf3c 30e5 b7bc eb34 1cbc
000001e0: 2d87 b03b 1059 c1bc 3cc4 9e3c 02a0 a13c
000001f0: 0265 923c d96b fbbb 928c 77bc 1138 aa3c
00000200: 4362 9e3c 2604 723c cbba e5bc 160f b23b
00000210: 52df 6bbc 3640 6d3c 0b98 8b3c dfee 70bc
00000220: f2a4 913b 5561 e2bc cdcd e2bc 4cff 3cbc
00000230: 85b2 873b b9b1 2b3c 75e3 cf3c 3556 8cbc
00000240: 538c 0ebc 8f17 9e3c 1e02 f23b 88f6 143c
00000250: fb2d a23b a68d 2e3c 4d71 5cbc 4813 4c3c
00000260: b73a 94bc 8d03 a63c acc1 b5bb 988a 443a
00000270: 7df0 92bc 34bc b9bb 2607 d4bc 8696 413c
00000280: 3929 e8bc 61c6 a73c b74d aebc 0081 a0bc
00000290: fc70 8cbc b217 3a3c f7be 58ba 3ac5 edbb
000002a0: 9e91 23bc 1f60 1abc df41 8f3c 4391 9cbc
000002b0: fa7a 8d3c a7a1 0a3c f95b 8dbb 0dd5 64bc
000002c0: 5a61 383c 4e03 6d3c ad5b 2d3b 89ad 36bc
000002d0: 1fb1 d0bb a175 903c bdbc 2b3a 09b0 953c
000002e0: 6ab9 be3a 84ef 773b 8ec3 9e3a 9826 05bd
000002f0: 2bad fabc da69 02bd 460f 003c 1e65 c8bb
00000300: e0b2 01bc 7c14 8a3c c8a3 993c 0f6c 12bc
00000310: 2ccd 83bc aac1 703c 01de c0bc 3d5f bfbc
00000320: 773e b8bc b7c1 11bc c11c f2bc 8035 a7bb
00000330: cb58 dabc c45f 1cbc a022 f9bc 7373 9b3c
00000340: 40f2 a4bc a1f3 11bc a2c2 293c 1a03 7f3c
00000350: a283 a2bc 4930 8a3c e2c4 81bc d6d2 123c
00000360: 371d 1b3c 2bf7 84bb 7297 f43a 4e20 10bc
00000370: 5c8e 8ab9 a691 f0bc 1b1e 893c 5211 e03b
00000380: 8176 163c 95fb a73b c5a7 683c 352f 04bd
00000390: 50db f9bc 28ca 203b 6888 533c 43d1 d83c
000003a0: e428 0cbc 5ee8 9d3c 6cf1 77bc f621 3cbb
000003b0: 32ff d9bc c9fd 7bbc 3b8c c33c 9290 0bbb
000003c0: 1dce 15bb cc3d 763c edba 5bbc 68f7 52bc
000003d0: 624c 473b 6125 d7bc d2a0 663c 092c 16bb
000003e0: a2aa 1cbc ed86 89bc 2e6f 4c3a 0169 bebc
000003f0: 14e6 a73c 0b24 d53b 46b8 3abc eee2 b0bc

sequential_2/dense_5/MatMul f4 [5, 16]
-0.4595895 -0.29758233 0.36007178 -0.30151218 0.34564757 -0.40922353 -0.17284903 -0.28183943
-0.4139729 -0.18212575 0.07719636 0.037357688 -0.31935096 -0.19773178 0.5218389 0.434916
-0.37526354 -0.4853072 -0.5515921 -0.4627961 0.49003062 -0.19354373 0.3100084 0.1662875
0.3954017 0.47240418 0.51447374 0.50598675 0.40339318 0.31429926 -0.17957135 0.4172439
-0.44633391 -0.013541539 -0.34659505 0.20866239 -0.27495173 0.30754384 -0.07329221 -0.46490458
0.057640567 -0.105849564 0.14900367 0.46459487 -0.22784372 -0.3744025 0.56781304 -0.34804347
0.10543908 0.299382 0.4458685 0.20498735 0.13302101 -0.48558882 -0.21303655 -0.34648925
0.019556457 0.22919184 0.39653477 0.41383475 0.027808757 0.14710984 -0.020947108 -0.3715004
-0.3919209 0.41324386 0.18244596 -0.12023055 -0.29582372 0.3562127 -0.002492413 0.22260739
-0.030216387 0.34413096 -0.29672185 0.050926562 -0.5162848 0.31821254 0.46761587 -0.1905897
00000000: 514f ebbe b65c 98be 545b b83e ce5f 9abe
00000010: b8f8 b03e bf85 d1be 56ff 30be 424d 90be
00000020: 42f4 d3be 2c7f 3abe 2019 9e3d 6004 193d
00000030: f881 a3be 337a 4abe 3c97 053f 4fad de3e
00000040: 8b22 c0be 2f7a f8be 2435 0dbf 9cf3 ecbe
00000050: 4be5 fa3e 5430 46be 6cb9 9e3e 4547 2a3e
00000060: 1772 ca3e f6de f13e 8db4 033f 5988 013f
00000070: 8d89 ce3e d5eb a03e 8de1 37be fea0 d53e
00000080: e185 e4be 55dd 5dbc e874 b1be 98ab 553e
00000090: 79c6 8cbe 6376 9d3e 3a1a 96bd f907 eebe
000000a0: 8418 6c3d a8c7 d8bd 6b94 183e 61df ed3e
000000b0: dd4f 69be afb1 bfbe 325c 113f c132 b2be
000000c0: 72f0 d73d 9948 993e e048 e43e 34e8 513e
000000d0: a936 083e 199f f8be 4126 5abe 0a67 b1be
000000e0: dd34 a03c 44b1 6a3e 9b06 cb3e 26e2 d33e
000000f0: 31cf e33c f6a3 163e 4599 abbc 4d35 bebe
00000100: dba9 c8be b394 d33e 1dd3 3a3e 6f3b f6bd
00000110: 3576 97be 8361 b63e c057 23bb 31f3 633e
00000120: 5b88 f7bc ef31 b03e edeb 97be 5f98 503d
00000130: 3e2b 04bf c1ec a23e 596b ef3e f229 43be
